data.pth (torch, 24639 bytes, 6 tensors)

l1.weight f4 [50, 52]
0	0x3ea37b58	0.3193004
1	0xbd4e3a31	-0.050348464
2	0x3d81351a	0.063089564
3	0x3e40abfd	0.18815608
4	0xbd9024cf	-0.07038271
5	0x3e6900da	0.22754231
6	0xbcbf4bce	-0.023351576
7	0x3e89a288	0.26881814
8	0xbe1d3811	-0.15353419
9	0x3efc2a7c	0.49251163
10	0xbe5dc979	-0.21658887
11	0x3d4f1a9d	0.05056249
12	0x3d9e538d	0.0773078
13	0x3d898467	0.06714707
14	0xbe3c0e00	-0.18364716
15	0x3ca166e2	0.019702379
16	0x3e51c1c5	0.20484073
17	0x3e8fff33	0.2812439
18	0xbd842f2e	-0.06454311
19	0x3ec10e40	0.37706184
20	0xbd316dbe	-0.04331755
21	0x3cc404a3	0.023927992
22	0x3e1aa25e	0.15101
23	0x3e303294	0.17206794
24	0x3e2b18a9	0.16708626
25	0x3e25430b	0.16138856
26	0xbd5d5f9b	-0.054046255
27	0x3d60f809	0.054924045
28	0x3d07d08e	0.033157878
29	0xbd9a9186	-0.07547288
30	0xbe01b1c8	-0.12665474
31	0xbe1f5165	-0.15558393
32	0xbd7dddf1	-0.061979238
33	0x3e9c1941	0.30488017
34	0xbe30e13b	-0.17273419
35	0x3bb7b465	0.0056062215
36	0xbd4e634b	-0.050387662
37	0xbd34ac97	-0.044109907
38	0x3ca68781	0.020328285
39	0x3ccf5dd0	0.025313288
40	0xbd45b514	-0.048268393
41	0xbd3a312a	-0.045457043
42	0xbe3f8449	-0.18702807
43	0xbe1d5197	-0.15363155
44	0x3e4b30b3	0.19842796
45	0x3ec59adf	0.3859472
46	0x3ea8567f	0.3287849
47	0xbe0ab098	-0.13543928
48	0xbe9aab5a	-0.30208856
49	0xbe5c7041	-0.21527196
50	0xbe2a12d3	-0.16608743
51	0xbdfa6f10	-0.12228215
52	0xbe3877f1	-0.18014504
53	0x3d6293d0	0.055316746
54	0x3df0cf7f	0.11758327
55	0xbd4dce61	-0.050245646
56	0xbdaee056	-0.085388824
57	0x3dcc4023	0.099731706
58	0x3ef22bf2	0.47299153
59	0xbd34f5cb	-0.04417972
60	0x3eb8e23b	0.361101
61	0xbdc02de1	-0.09383751
62	0x3f0d13d4	0.5510838
63	0xbbfcc574	-0.007713968
64	0x3c8d5464	0.017252155
65	0x3d9f4eb8	0.07778686
66	0x3d88e9dd	0.06685231
67	0xbb0009fa	-0.0019537196
68	0xbd9daf17	-0.07699411
69	0xbe0ae722	-0.13564733
70	0x3f72cd8b	0.94844884
71	0xbdf2de9b	-0.11858865
72	0x3d8962cb	0.067082964
73	0x3e06eb1c	0.13175625
74	0xbdc4c996	-0.09608762
75	0xbdc9da92	-0.09856142
76	0xbe8a184c	-0.26971662
77	0xbe15f1e8	-0.14643061
78	0x3dcc0e44	0.099636585
79	0xbc1905dd	-0.009339777
80	0x3e1376da	0.14400807
81	0xbdde156f	-0.10843932
82	0xbcf8f129	-0.030388432
83	0x3db74766	0.08949165
84	0xbdee8ed6	-0.116483375
85	0x3b301b0c	0.002687159
86	0x3d28f003	0.041244518
87	0x3c8990c2	0.016792659
88	0xbc860d9f	-0.016363917
89	0x3d624a91	0.055246893
90	0xbde81807	-0.11332708
91	0x3d77d763	0.060508143
92	0x3e155a0c	0.14585131
93	0xbe2045c3	-0.15651612
94	0x3b924b0e	0.0044645136
95	0xbdf5634e	-0.119818315
96	0x3b180699	0.0023197292
97	0xbe547cc6	-0.20750722
98	0xbdd5c38d	-0.10437689
99	0x3e9568e7	0.29181597
100	0x3e881000	0.26574707
101	0x3ddaecf6	0.10689728
102	0x3e8780aa	0.2646535
103	0x3cbfa07d	0.023391956
104	0x3c26fb41	0.01019174
105	0xbd032e40	-0.03202653
106	0x3e84bc44	0.25924885
107	0xbdb629c4	-0.08894685
108	0x3a97647c	0.0011550332
109	0x3e105a22	0.14096883
110	0x3dfd1e9e	0.123593554
111	0xbe5731aa	-0.21015039
112	0xbe3690c8	-0.17828667
113	0x3e0fba44	0.14035898
114	0x3e66b5ea	0.22530332
115	0xbd8216d2	-0.06352009
116	0x3e50c2d8	0.20386827
117	0x3e819b50	0.25313807
118	0x3dd9be34	0.106319815
119	0xbd81e251	-0.063419946
120	0x3da77463	0.08176496
121	0x3e724931	0.23660733
122	0xbe38f70b	-0.1806299
123	0x3ee95818	0.45575023
124	0xbc1a8b07	-0.009432561
125	0xbcbde594	-0.02318076
126	0x3ec3ee59	0.38267782
127	0x3ea8eebf	0.3299465
128	0x3d4c0f19	0.049819086
129	0xbdb69df9	-0.0891685
130	0x3cbbed26	0.02294023
131	0x3d550ece	0.052016072
132	0xbdc24091	-0.09484971
133	0x3cc0f49a	0.023554135
134	0x3c4f72a6	0.012661612
135	0x3d445bc7	0.04793909
136	0xbdc9a579	-0.098460145
137	0x3e477501	0.19478227
138	0x3e9bff20	0.30468082
139	0xbc8b3e3f	-0.016997455
140	0x3e9b646f	0.30350062
141	0x3c37dc27	0.011221922
142	0xbc8bba96	-0.017056745
143	0xbdd89fcf	-0.10577356
144	0x3e185bbb	0.14878742
145	0xbe4d8be3	-0.20072894
146	0xbe2f9303	-0.17145924
147	0xbe04c8ea	-0.12967268
148	0xbdab4713	-0.08363166
149	0x3e8853f9	0.26626566
150	0x3ccd5c21	0.025068345
151	0x3ebed305	0.3727037
152	0x3ea6f526	0.32608908
153	0x3e0e2ed2	0.13885048
154	0x3d3ca7d9	0.04605851
155	0x3e168470	0.14698958
156	0xbe807dee	-0.25096077
157	0x3e3b8747	0.18313323
158	0x3e5c4d64	0.21513897
159	0x3e5ff558	0.21870935
160	0x3d8351ef	0.06412112
161	0x39e3c626	0.00043444446
162	0x3f476dbc	0.77901816
163	0x3e79a665	0.2437988
164	0x3f098a9c	0.53727126
165	0xbd8c6ff1	-0.06857289
166	0x3f52c787	0.82335705
167	0x3ea0bef3	0.31395683
168	0xbe002ebf	-0.12517832
169	0x3d9b10dd	0.07571576
170	0x3e5bdf9c	0.21472019
171	0x3d06f52c	0.032948658
172	0xbccfcb6e	-0.025365558
173	0x3cfa2b38	0.030538186
174	0x3edf02bb	0.4355677
175	0xbdcb167e	-0.099163994
176	0xbc08cfde	-0.008350341
177	0x3d384e31	0.044996444
178	0xbe010ba4	-0.12602097
179	0xbdc67c01	-0.096916206
180	0xbe5fc6b0	-0.21853137
181	0x3e40cc31	0.18827893
182	0xbbc4e9b9	-0.006009307
183	0x3da1cd84	0.07900527
184	0x3e5bddca	0.21471325
185	0xbdcaae27	-0.09896498
186	0x3e2ca50e	0.16859838
187	0x3e5714b4	0.21003991
188	0x3e642567	0.22279893
189	0xbcacd915	-0.021099607
190	0x3e4a31be	0.19745538
191	0xbc92732f	-0.01787719
192	0x3e1fad86	0.15593538
193	0x3e11bdbc	0.14232534
194	0x3e538ba9	0.20658745
195	0x3e4c634b	0.19959752
196	0x3e58394d	0.21115609
197	0xbdca9b76	-0.09892933
198	0x3d851f84	0.06500152
199	0xbd1cc12c	-0.03827016
200	0x3e56345d	0.20918413
201	0xbd4e4085	-0.0503545
202	0x3d8c89af	0.068621986
203	0x3e50248f	0.20326446
204	0x3e680157	0.22656761
205	0x3e0c9fe3	0.13732867
206	0x3e1b4622	0.15163472
207	0x3d31963b	0.04335616
208	0x3ee0ff81	0.43944934
209	0x3e320067	0.17382966
210	0xbd94c08d	-0.07263289
211	0x3e2b17c5	0.16708286
212	0xbdbfb7d7	-0.093612365
213	0x3ddafb70	0.10692489
214	0xbe101acb	-0.1407272
215	0x3e665d73	0.22496586
216	0xbe57b61a	-0.2106556
217	0xbd19c81a	-0.037544347
218	0xbd79b086	-0.06095936
219	0x3dbb001c	0.0913088
220	0x3de4e517	0.11176508
221	0xbdb60450	-0.08887541
222	0x3d2607b0	0.040534675
223	0x3e074b82	0.13212398
224	0x3d2f8874	0.04285474
225	0x3d97b053	0.07406678
226	0xbe57df33	-0.21081237
227	0x3e1618c7	0.1465789
228	0x3e087d93	0.13329153
229	0x3cb2504a	0.0217668
230	0x3e84909f	0.25891587
231	0x3e661ec7	0.22472678
232	0x3f0c77bc	0.548702
233	0x3e4f8969	0.20267262
234	0xbd0789c1	-0.033090357
235	0x3ca70529	0.020388203
236	0xbda11ab4	-0.07866421
237	0x3e8fc261	0.28077987
238	0x3e119f73	0.14220981
239	0xbc117edd	-0.008880344
240	0x3cbe130f	0.023202447
241	0x3e594e70	0.21221328
242	0xbe24186f	-0.16024946
243	0xbd58a3d9	-0.052890632
244	0xbe6e61a1	-0.2327943
245	0xbd0b29a7	-0.03397527
246	0x3d5b15c9	0.053487573
247	0xbd9cae6c	-0.07650456
248	0xbda1b8ee	-0.07896601
249	0x3ea335c8	0.3187697
250	0x3e9c814a	0.3056739
251	0x3d0e145a	0.034687378
252	0x3d85452b	0.06507333
253	0x3e9ec83e	0.31012148
254	0x3dbad9e9	0.09123594
255	0xbcf380d3	-0.029724514

l1.bias f4 [50]
0	0x3e600ab2	0.2187908
1	0x3db9bba7	0.09068995
2	0x3e1d2046	0.15344343
3	0x3dc3a2e9	0.09552557
4	0x3e410142	0.18848136
5	0x3e50ea68	0.20401919
6	0x3e78e2ff	0.24305342
7	0x3e087451	0.13325621
8	0x3e06dcf7	0.13170229
9	0x3e7ed5f6	0.24886307
10	0x3e8dedca	0.2772048
11	0x3df49ac6	0.11943583
12	0x3db6da39	0.089283414
13	0x3dcb7b42	0.09935619
14	0x3cede792	0.029041085
15	0x3e81eec6	0.25377482
16	0x3e68b975	0.22726996
17	0x3e575643	0.21029
18	0x3de9acb9	0.11409897
19	0x3dc9796a	0.09837611
20	0x3e022806	0.1271058
21	0xbbd40a5f	-0.006470963
22	0xbcfdb0bb	-0.03096806
23	0x3cd4271d	0.025897557
24	0x3e427b6a	0.18992391
25	0xbc5c23c1	-0.013436259
26	0x3e1d5884	0.15365797
27	0x3b7c7b4a	0.0038525634
28	0x3e0cbeac	0.1374461
29	0xbcd062e7	-0.025437785
30	0xbd85255a	-0.06501265
31	0x3e6ff10a	0.23431793
32	0x3e97c503	0.29642496
33	0x3e4cdd0f	0.20006202
34	0x3d0eca21	0.034860734
35	0x3d78bbe1	0.06072605
36	0x3e972afe	0.29524988
37	0x3d7e8c26	0.062145375
38	0x3d22f115	0.039780695
39	0x3e62908a	0.2212545
40	0x3e5b89b9	0.21439256
41	0x3d8c043f	0.068367474
42	0x3d1a08ba	0.03760598
43	0x3b8550d2	0.0040684724
44	0x3ed2d4ea	0.41178066
45	0x3e1b05b8	0.151389
46	0x3dacef17	0.0844404
47	0x3e0dba89	0.13840689
48	0x3e80c170	0.2514758
49	0x3e349e02	0.176384

l2.weight f4 [50, 50]
0	0xbda2d1b4	-0.07950154
1	0x3e89e9c2	0.26936156
2	0xbca89b2a	-0.0205818
3	0x3e1114f2	0.14168146
4	0xbe91b620	-0.28459263
5	0x3e899696	0.268727
6	0x3da98d4b	0.082789026
7	0xbdcb53b8	-0.099280775
8	0xbe3891d4	-0.18024379
9	0x3d7256fc	0.059164986
10	0xbe657149	-0.22406496
11	0x3e34df89	0.17663397
12	0xbd1f6924	-0.03891863
13	0x3e27632a	0.16346422
14	0xbe4da243	-0.20081429
15	0x3e3d65c8	0.18495858
16	0x3d845c21	0.06462885
17	0x3e391b1d	0.18076749
18	0xbdb3cc34	-0.08779183
19	0x3db5bef5	0.08874313
20	0x3e3a1014	0.18170196
21	0xbd143abb	-0.036188822
22	0xbe948812	-0.29010063
23	0x3e358404	0.17726141
24	0x3ce25dfa	0.027632702
25	0xbca70c38	-0.020391569
26	0xbdb5d72c	-0.088789314
27	0xbc3e9549	-0.011632272
28	0x3d00edb6	0.0314767
29	0x3c910c2d	0.017706001
30	0x3e80a6f5	0.25127378
31	0xbdc41827	-0.09574919
32	0x3d422702	0.047400482
33	0x3e99e9f7	0.30061314
34	0xbbff266b	-0.007786562
35	0x3e1870f2	0.14886835
36	0x3ce68b20	0.028142512
37	0xbd508517	-0.050908174
38	0x3e416ca6	0.18889102
39	0x3e3bcf6b	0.18340842
40	0x3e315438	0.17317283
41	0x3df80454	0.121102005
42	0x3c9c448b	0.019075653
43	0x3d04d0b3	0.032425594
44	0x3d154358	0.036441177
45	0xbd9dff3e	-0.07714699
46	0xbdb878be	-0.09007405
47	0x3d849a04	0.06474689
48	0x3e82b01e	0.25524992
49	0x3db06618	0.08613223
50	0xbe30f7b2	-0.17281988
51	0x3e60d1a8	0.21954978
52	0x3dd02a66	0.10164337
53	0x3df9ab97	0.12190931
54	0xbe4089f4	-0.18802625
55	0x3d12d7d4	0.03585036
56	0x3c958acb	0.018254658
57	0x3bb3d6a0	0.005488232
58	0xbd4c3d60	-0.04986322
59	0x3df98cfd	0.121850945
60	0xbdad58da	-0.08464213
61	0x3e19a09a	0.15002671
62	0x3e1c68a9	0.152743
63	0x3e352977	0.17691599
64	0x3d0dc408	0.034610778
65	0x3e492bb0	0.19645572
66	0x3c81f7b6	0.015865188
67	0x3e550d6e	0.20805904
68	0x3d81a125	0.06329564
69	0x3e842991	0.25812963
70	0x3e91e0b4	0.28491747
71	0x3d7769a8	0.060403496
72	0xbc9481a1	-0.018128218
73	0x3e00940d	0.12556477
74	0xbe72a0d2	-0.2369416
75	0x3e8de3e9	0.27712944
76	0xbe1c7d9b	-0.1528229
77	0x3e737f6b	0.23779075
78	0x3e2dfd0a	0.16991058
79	0xba247231	-0.00062731194
80	0x3e3612e3	0.17780642
81	0x3d8cb877	0.068711214
82	0xbcc03ede	-0.023467477
83	0x3e4e7b34	0.20164186
84	0xbe9f900d	-0.3116459
85	0x3e9144c8	0.28372788
86	0xbd0ec3a4	-0.034854546
87	0x3e43f16b	0.19135062
88	0x3e65a2f8	0.22425449
89	0xbea67b67	-0.32516024
90	0x3c2b12cf	0.010441496
91	0x3e224f01	0.1585045
92	0x3e187af8	0.14890659
93	0x3da26148	0.07928711
94	0x3db504f1	0.08838833
95	0x3e8d44d7	0.27591583
96	0x3d2ce12e	0.042206936
97	0xbe553a0f	-0.20822929
98	0xbb28785f	-0.0025706512
99	0x3b7e800c	0.0038833646
100	0x3ee980a0	0.45605946
101	0xbe516e04	-0.20452124
102	0x3dd82d78	0.105555475
103	0xbe69840b	-0.22804277
104	0x3eb084e9	0.34476402
105	0xbe9bd55b	-0.30436215
106	0x3d6422b2	0.05569715
107	0x3f09c007	0.53808635
108	0x3e25ef18	0.16204488
109	0x3e38ee5f	0.18059681
110	0x3e2a9399	0.16657867
111	0xbcda88ad	-0.0266765
112	0xbdeec775	-0.11659137
113	0x3c1a62c7	0.009422964
114	0xbd5fd101	-0.05464268
115	0x3e4cfd92	0.20018604
116	0x3d82310a	0.0635701
117	0x3d8bcbd7	0.06825989
118	0x3eb3d9a3	0.3512698
119	0xbd89ccf9	-0.067285486
120	0xbec2e7ba	-0.38067418
121	0x3daa5f5b	0.08318969
122	0x3d787105	0.06065466
123	0x3e6053b1	0.21906926
124	0x3ecc555b	0.3990887
125	0xbda85318	-0.08218974
126	0x3e18eb89	0.149336
127	0xbbc59622	-0.00602986
128	0xbe21c7a8	-0.15798819
129	0x3c703ebd	0.0146633955
130	0xbe18623b	-0.14881222
131	0x3e81626d	0.25270405
132	0x3e3d9a4c	0.18515891
133	0x3d5034df	0.05083167
134	0xbd8aef2d	-0.067839004
135	0xbd61f738	-0.055167407
136	0x3e3c877d	0.1841106
137	0x3d3b5959	0.045739505
138	0x3dcd2789	0.10017306
139	0x3c440931	0.011965082
140	0x3e5ee280	0.2176609
141	0x3e06898b	0.13138406
142	0xbd9a8a97	-0.07545965
143	0x3da0e97f	0.07857036
144	0x3db21483	0.086953185
145	0x3c3e79ca	0.011625716
146	0xbcf67462	-0.030084793
147	0x3ea7dfed	0.3278803
148	0x3e8cfd40	0.27536964
149	0x3d4f0ebe	0.05055117
150	0xbded8e41	-0.115993984
151	0x3ec0f09f	0.3768358
152	0x3d716689	0.058935676
153	0x3e2891db	0.1646189
154	0xbde8c4f5	-0.113656916
155	0x3e947447	0.28994963
156	0x3db75e45	0.08953527
157	0xbca56b63	-0.020192808
158	0x3e037437	0.12837301
159	0xbd1e0317	-0.038577165
160	0xbe871a69	-0.26387337
161	0x3e476d84	0.1947537
162	0xbc9a6bbf	-0.018850205
163	0x3d4ee912	0.050515242
164	0xbe5fe826	-0.21865901
165	0x3d49213d	0.049103964
166	0x3cd21cfe	0.02564859
167	0xbc9d6bf7	-0.01921652
168	0xbdc7b4c1	-0.09751273
169	0x3e49ef21	0.19720127
170	0x3ed520c5	0.41626564
171	0x3cf32710	0.029681712
172	0xbe6838e2	-0.22677949
173	0x3dfcdc5a	0.12346716
174	0xbdd02258	-0.101628006
175	0x3e516c7a	0.20451537
176	0xbe79a9fc	-0.2438125
177	0xbdca159c	-0.09867403
178	0x3da71d52	0.08159889
179	0x3d503289	0.050829444
180	0x3e0c47d4	0.13699275
181	0x3e3d898c	0.18509501
182	0x3eadc5f4	0.3394009
183	0x3ec00037	0.37500164
184	0x3dd2ea06	0.10298543
185	0x3e17582a	0.14779726
186	0x3dd26eb1	0.10275019
187	0xbe2f8f6b	-0.17144553
188	0x3dbaf0f0	0.091279864
189	0x3e282d55	0.16423543
190	0x3e55696c	0.20840997
191	0x3dc7cdd5	0.09756056
192	0xbdbdb533	-0.09263077
193	0x3e1efa3c	0.15525144
194	0x3e0a200f	0.13488792
195	0x3db7fe97	0.08984106
196	0x3df58170	0.11987579
197	0x3b823862	0.0039740065
198	0x3d22105c	0.039566383
199	0x3e287489	0.16450705
200	0x3ead09b9	0.3379648
201	0xbe13741c	-0.14399761
202	0xbcadfbcb	-0.021238228
203	0xbd89a144	-0.06720212
204	0x3ebd14cd	0.36929932
205	0xbdeb0b61	-0.1147678
206	0xbd15ad7f	-0.036542412
207	0x3e40a7bd	0.18813987
208	0x3e7ed107	0.24884425
209	0x3da5be2c	0.08092913
210	0x3e8c8dd2	0.2745195
211	0x3a8ee932	0.0010903238
212	0xbbce420b	-0.006294494
213	0xbe20e2e8	-0.15711558
214	0x3e4b527d	0.19855686
215	0x3d9e8f8a	0.07742222
216	0x3d021a12	0.031763144
217	0x3e28aa4a	0.1647121
218	0x3e2cddb6	0.16881451
219	0x3dd037ec	0.10166916
220	0xbe6a10a9	-0.22857918
221	0x3cb451c5	0.022011647
222	0x3e89b2b0	0.2689414
223	0x3d3ba517	0.04581174
224	0x3e025d7b	0.12730972
225	0xbe18c8ba	-0.14920321
226	0x3e646b88	0.22306645
227	0x3e91f78e	0.28509182
228	0x3dfda4f5	0.12384979
229	0xbc989c78	-0.018629298
230	0xbe82c026	-0.25537223
231	0x3e2a6b8b	0.16642587
232	0x3d4ffd7b	0.050778847
233	0xbe414b3c	-0.18876356
234	0x3e2ea925	0.17056711
235	0xbd979f8e	-0.074034795
236	0x3ee4d320	0.44692326
237	0x3e2587f3	0.16165142
238	0xbe5ca747	-0.21548186
239	0x3db7474f	0.08949148
240	0xbe02a851	-0.1275952
241	0x3de34667	0.110974126
242	0x3d0c0e83	0.034193527
243	0xbc68add5	-0.014201601
244	0xbca8910b	-0.020576974
245	0x3b9f99f9	0.00487065
246	0x3c3c58d9	0.011495792
247	0x3e02deb4	0.12780267
248	0x3ccf27ff	0.025287626
249	0x3e404828	0.18777525
250	0xbe0d1e61	-0.1378112
251	0xbd5ad1c8	-0.05342272
252	0xbdbe8ece	-0.093045816
253	0xbc7c7f2e	-0.015411181
254	0x3b232c7a	0.0024898336
255	0xbcbca354	-0.0230271

l2.bias f4 [50]
0	0x3d878b3d	0.066183545
1	0xbb8d85db	-0.0043189353
2	0x3de58695	0.1120731
3	0x3e272b49	0.16325106
4	0xbcd52280	-0.026017427
5	0xbd50f928	-0.051018864
6	0x3e090217	0.13379703
7	0x3e3d790f	0.18503211
8	0x3d9d846d	0.07691274
9	0x3e5c676f	0.21523832
10	0x3ddaf853	0.10691895
11	0x3db905bb	0.09034296
12	0x3dabb783	0.083846115
13	0x3d4bf15d	0.04979073
14	0x3c0eaa54	0.008707602
15	0x3db10632	0.0864376
16	0x3e5fafa2	0.21844342
17	0x3e76a285	0.24085434
18	0x3ea733ad	0.32656613
19	0x3d540e39	0.051771376
20	0xbc403fca	-0.0117339585
21	0x3e044c42	0.12919715
22	0x3e1eec65	0.15519865
23	0xbd8d3d44	-0.06896451
24	0xbd44db83	-0.048060905
25	0x3cce17d6	0.02515785
26	0xbe0d61ba	-0.13806811
27	0xbd15eb8c	-0.036601588
28	0xbd3da953	-0.04630406
29	0x3e02a036	0.12756428
30	0x3d6488da	0.055794574
31	0x3ed01e0e	0.4064793
32	0xbe06eb22	-0.13175634
33	0x3e56a7ee	0.20962498
34	0x3d688e5d	0.056776393
35	0x3ea7719d	0.32703868
36	0xbce644ad	-0.028108919
37	0x3d963c53	0.07335725
38	0x3e77161c	0.24129528
39	0x3e6a3eb8	0.22875488
40	0xbe069b69	-0.13145222
41	0xbd20be12	-0.039243765
42	0x3da0ec68	0.07857591
43	0x3d8a98c9	0.06767423
44	0x3e10477b	0.14089768
45	0x3e109e3c	0.14122862
46	0x3d23625f	0.039888736
47	0x3e005d2d	0.12535544
48	0xbdc2c3d7	-0.0951001
49	0x3e98805e	0.29785436

l3.weight f4 [5, 50]
0	0xbeedcc68	-0.46445012
1	0x3d3bcf82	0.04585219
2	0xbf705cf4	-0.93891835
3	0xbefdacd9	-0.49545935
4	0x3dee21ae	0.11627518
5	0x3de8991a	0.11357327
6	0xbf1e6d6d	-0.6188572
7	0xbdde2220	-0.108463526
8	0x3e98696e	0.29767936
9	0x3e093eab	0.13402812
10	0x3d9d0933	0.0766777
11	0xbe2b823c	-0.16748899
12	0x3d40ca3d	0.04706787
13	0x3de8c994	0.11366573
14	0xbe8b5d6b	-0.2721971
15	0x3d03e918	0.032204717
16	0xbf016d61	-0.50557524
17	0x3e68737b	0.22700302
18	0xbf2e8be3	-0.681822
19	0x3e3afb2e	0.1825988
20	0xbe294246	-0.16529188
21	0xbeea8558	-0.45804858
22	0xbdd0bd02	-0.101923004
23	0xbba69e3f	-0.0050847824
24	0xbe69aab6	-0.22819027
25	0xbfcc7bf9	-1.5975333
26	0xbe0fb078	-0.14032161
27	0x3e024a6c	0.12723702
28	0x3e569258	0.20954263
29	0x3de955b0	0.11393297
30	0xbeea6ad0	-0.45784616
31	0xbf4a9e09	-0.7914739
32	0x3ac24a75	0.0014823215
33	0x3e32d1f0	0.17462897
34	0xbf07ae78	-0.53000593
35	0xbe695ef4	-0.22790128
36	0xbea097ae	-0.31365722
37	0xbedf1d37	-0.43576977
38	0xbe069fd9	-0.13146915
39	0xbf19983b	-0.5999791
40	0xbdc39c0a	-0.095512465
41	0xc016b9ad	-2.3550828
42	0x3c5bfd08	0.013427027
43	0x3e2d118c	0.16901225
44	0xbd7f9063	-0.062393557
45	0x3e870bfc	0.2637633
46	0xbb24306d	-0.0025053278
47	0x3e4f83ad	0.20265074
48	0x3e9cc75f	0.30620858
49	0xbf0e936c	-0.556937
50	0x3e8a1aa6	0.26973456
51	0xbee86994	-0.4539305
52	0xbc82ba89	-0.015958088
53	0x3eafdfec	0.34350526
54	0xbe968ba4	-0.29403412
55	0x3dce0486	0.100594565
56	0xbe65dbfe	-0.22447202
57	0xbeb8736c	-0.3602556
58	0x3cbf0ebf	0.023322461
59	0xbd8b0bb5	-0.06789342
60	0xbe46c754	-0.19411975
61	0xbcb5bd4c	-0.02218499
62	0xbf5b8d97	-0.85762924
63	0xbe6e6187	-0.23279391
64	0xbf4ee5b3	-0.80819243
65	0xbf458bd8	-0.7716651
66	0x3dfa2e7c	0.122158974
67	0x3e692982	0.2276974
68	0xbcbd28ef	-0.023090808
69	0x3d566280	0.05234003
70	0x3da8eae5	0.082479276
71	0xbea08660	-0.3135252
72	0xbddc6773	-0.10761919
73	0xbf2f559f	-0.6849002
74	0xbf029436	-0.510074
75	0xbdbbbe6b	-0.09167179
76	0xbd0dc172	-0.034608312
77	0xbd914aad	-0.070943214
78	0xbcd2ccee	-0.025732484
79	0xbf8098cc	-1.004663
80	0x3ded7abf	0.115956776
81	0x3ee4c904	0.44684613
82	0xbd87ad9c	-0.0662491
83	0xbe78e88d	-0.24307461
84	0x3ea984a1	0.33109
85	0x3e5b2444	0.21400553
86	0xbef23485	-0.47305694
87	0xbddb186e	-0.10698019
88	0x3db3c85f	0.08778452
89	0xbd88be3a	-0.06676908
90	0x3df588a2	0.11988951
91	0x3d1e53f4	0.038654283
92	0xbf344024	-0.7041037
93	0x3e6eba16	0.23313174
94	0xbf40b969	-0.75282913
95	0xbe77dc6f	-0.24205182
96	0x3e5c4ce7	0.21513711
97	0xbe4c672f	-0.19961236
98	0xbe9d9024	-0.30774033
99	0xbd7e7076	-0.06211897
100	0x3e7a9a0f	0.24472831
101	0x3e680b6d	0.22660609
102	0x3d6b7ba9	0.05749098
103	0x3e4a5c98	0.19761884
104	0xbe80592a	-0.25068027
105	0x3e0a0373	0.13477878
106	0xbe905c08	-0.28195214
107	0x3cf1f0b6	0.029533725
108	0xbe5c2cb0	-0.21501422
109	0xbd645340	-0.055743456
110	0x3e0128dd	0.12613244
111	0x3e798945	0.2436877
112	0x3df5a6c5	0.119946994
113	0xbe91213f	-0.28345677
114	0xbb5034a2	-0.0031769653
115	0x3dde79d6	0.10863082
116	0x3e044607	0.12917338
117	0xbec58b66	-0.38582915
118	0xbe4f551c	-0.2024731
119	0x3e1231d9	0.14276828
120	0x3e82d22b	0.2555097
121	0x3e54e243	0.20789437
122	0xbd3ff5eb	-0.046865385
123	0x3e81827d	0.25294867
124	0x3e6f378a	0.2336103
125	0xbffb53d4	-1.9634957
126	0xbd1b09f1	-0.037851278
127	0x3dbdb70f	0.09263431
128	0x3e1235a9	0.14278282
129	0xbda14bae	-0.07875763
130	0x3e22a242	0.15882209
131	0xbf3b599e	-0.7318362
132	0xbd736ed3	-0.059431862
133	0xbe601741	-0.2188387
134	0x3e2cd81e	0.16879317
135	0xbf8734ad	-1.056295
136	0x3e8e3e0f	0.27781722
137	0x3d88a463	0.06671979
138	0xbf4bf8c6	-0.79676473
139	0x3d190589	0.037358794
140	0x3dbe1022	0.09280421
141	0x3e590719	0.21194114
142	0x3d9b2f7e	0.07577418
143	0xbe08b8d9	-0.13351764
144	0xbe8fde64	-0.28099358
145	0xbe24f4b1	-0.16108967
146	0x3e0de3e0	0.13856459
147	0xbe7c1496	-0.24617228
148	0xbe47f94e	-0.19528696
149	0xbdc7bf3c	-0.09753272
150	0xbd85428e	-0.06506835
151	0xbdfe0644	-0.12403539
152	0x3e6470bc	0.2230863
153	0xbd5e12cb	-0.05421714
154	0x3e5cb093	0.21551733
155	0xbdf87ca8	-0.12133151
156	0x3e2b93de	0.16755626
157	0x3e5717d6	0.21005186
158	0xbe1e566e	-0.15462658
159	0xbe7e37a1	-0.24825908
160	0xbe7e19ea	-0.24814573
161	0xbe8d9822	-0.2765513
162	0x3e052be1	0.1300502
163	0xbf20ecdf	-0.62861437
164	0x3d908c9a	0.070580676
165	0x3e0b62c1	0.1361189
166	0x3e2efcbb	0.17088597
167	0xbf3b65e2	-0.73202336
168	0x3e2034ce	0.15645143
169	0xbe8fb1bb	-0.28065285
170	0xbe43f8e7	-0.19137917
171	0xbcf11b2f	-0.029431907
172	0x3e894650	0.26811457
173	0xbe66f150	-0.22552991
174	0xbd959e2e	-0.07305561
175	0xbfe0b203	-1.7554325
176	0x3dd9e0c8	0.10638577
177	0x3d29922b	0.041399162
178	0xbeb60ad2	-0.3555513
179	0x3e4ef27a	0.20209685
180	0x3e1d7411	0.15376307
181	0xbf45a91a	-0.77211154
182	0x3d0797ed	0.033103872
183	0xbeed6f9c	-0.46374214
184	0xbe27ff3b	-0.16405956
185	0xbeb13ddc	-0.34617507
186	0xbe3bccf0	-0.18339896
187	0x3e626a9f	0.22110985
188	0xbf765735	-0.9622682
189	0x3d9f1753	0.077681206
190	0xbc6264e1	-0.013817997
191	0xbddb0b20	-0.10695481
192	0x3e1df333	0.15424804
193	0x3da8d230	0.08243215
194	0x3e8e1d5d	0.27756777
195	0xbeeff76a	-0.4686845
196	0xbe9935a3	-0.29923734
197	0xbd55100d	-0.05201726
198	0xbe5327fe	-0.20620725
199	0x3e37c75b	0.17947142
200	0xbe68d487	-0.22737323
201	0xbed0173a	-0.4064272
202	0x3e3f7073	0.1869524
203	0xbef45b0b	-0.4772571
204	0x3e1dbc9c	0.1540398
205	0x3debf8b1	0.115220435
206	0x3e7bc85d	0.24588151
207	0xbabb5933	-0.0014293551
208	0xbdc835ec	-0.0977591
209	0x3e740e92	0.23833683
210	0x3d8a3a9b	0.06749459
211	0xbe5a5f07	-0.21325313
212	0xbe85d167	-0.26136324
213	0x3e60372a	0.21896043
214	0xbf66c894	-0.9014981
215	0xbe90f4b6	-0.283117
216	0x3d19ae0e	0.037519507
217	0x3de003c5	0.10938219
218	0x3e26a21e	0.1627278
219	0xbea80514	-0.32816374
220	0xbeb7e850	-0.35919428
221	0x3e6f7ca8	0.23387396
222	0xbf566964	-0.83754563
223	0xbee699b1	-0.45039132
224	0xbe806022	-0.25073344
225	0x3e6e1586	0.23250398
226	0x3d727a3d	0.059198607
227	0x3cd0224c	0.025406979
228	0xba14ff3c	-0.0005683785
229	0x3edceb35	0.431482
230	0xbf05bde5	-0.5224288
231	0x3dd6ec77	0.10494321
232	0xbda50a94	-0.08058658
233	0x3e95c6ac	0.29253137
234	0xbeb1992d	-0.34687176
235	0x3e7dbba4	0.2477861
236	0xbec521b7	-0.38502285
237	0xbe44eb8e	-0.19230482
238	0x3db28951	0.08717597
239	0x3d517819	0.051139925
240	0x3c43058f	0.011903181
241	0x3d5896a9	0.052878056
242	0xbf2d2a64	-0.6764281
243	0xbf7bf395	-0.9841855
244	0x3e83ffc9	0.25781086
245	0x3e6dcedb	0.2322344
246	0xbe9b3039	-0.30310228
247	0xbc6165b4	-0.013757158
248	0xbef5d25b	-0.4801205
249	0x3e7d2390	0.24720597

l3.bias f4 [5]
0	0xbe24339b	-0.16035311
1	0x3dd39b72	0.10332383
2	0x3d0dcabc	0.03461717
3	0xbaf71b45	-0.0018852731
4	0xbd984359	-0.074347205
